storage/VAE5000/model/model.pth (torch, 37585 bytes, 28 tensors)

encoder.rnn.weight_ih_l0 f4 [24, 6]
0	0xbe0bae93	-0.13640814
1	0xbccc9955	-0.024975458
2	0xbe2eeb52	-0.17081955
3	0xbd0e8043	-0.03479029
4	0xbe0ce2ee	-0.13758442
5	0xbe7f9972	-0.24960878
6	0xbe34a716	-0.17641863
7	0xbdcee355	-0.10101954
8	0xbe33d7fb	-0.17562859
9	0x3e335af3	0.17515163
10	0xbdfa13bd	-0.12210796
11	0x3e2d6b52	0.1693547
12	0xbe069896	-0.13144144
13	0xbe0c1c1a	-0.13682595
14	0x3e2ace54	0.1668027
15	0xbb33ff65	-0.002746546
16	0xbdf93294	-0.1216785
17	0x3ebc61d6	0.36793393
18	0x3e3ad5c5	0.18245609
19	0xbd70c443	-0.05878092
20	0xbdfa6db6	-0.12227957
21	0x3d2910e6	0.04127588
22	0x3df2d3de	0.11856817
23	0xbea11c0b	-0.31466708
24	0x3cf125fe	0.029437061
25	0xbd5a70d3	-0.053330254
26	0x3c2d906f	0.010593518
27	0x3e370be9	0.17875637
28	0x3dadf39b	0.0849373
29	0xbc83488e	-0.016025808
30	0x3ca0854b	0.019594809
31	0xbdcab81f	-0.098983996
32	0xbe35df61	-0.17760994
33	0xbe369ded	-0.17833681
34	0x3e17b3b7	0.1481465
35	0xbdc8ecec	-0.09810814
36	0xbe2fbef2	-0.17162684
37	0x3df965f1	0.12177647
38	0x3e4abb2b	0.19797961
39	0xbd9f1796	-0.077681705
40	0xbe16d532	-0.14729765
41	0xbe086cda	-0.13322774
42	0xbde91a36	-0.113819525
43	0xbe796ffc	-0.24359125
44	0x3d4d3d14	0.050107077
45	0x3db17fac	0.086669296
46	0xbe2102be	-0.15723702
47	0xbe27dcd3	-0.16392832
48	0xbe1bad01	-0.15202715
49	0xbbcd6fb8	-0.0062694214
50	0xbdb7450c	-0.089487165
51	0xbdf478d4	-0.11937109
52	0x3d0cfec3	0.034422647
53	0xbe1b2346	-0.15150174
54	0xbdf897d9	-0.12138338
55	0x3e03574d	0.12826271
56	0x3df2d293	0.1185657
57	0xbe0996d3	-0.13436441
58	0xbdc1904b	-0.0945135
59	0x3e96c0d9	0.29444006
60	0xbdc722f1	-0.097234614
61	0x3e2da39e	0.16956946
62	0xbe0e5ed7	-0.13903366
63	0xbdf93f00	-0.121702194
64	0x3cb05b7d	0.021528
65	0xbe8ad1a4	-0.27113068
66	0xbdab2c41	-0.0835805
67	0x3cf2772d	0.029597843
68	0xbe13db06	-0.1443902
69	0xbe2d2c74	-0.16911489
70	0xbbd23bdb	-0.0064158267
71	0x3bb3ac46	0.005483183
72	0x3dd02a97	0.10164373
73	0x3ddc4869	0.10755999
74	0x3cb57156	0.02214877
75	0xbe184a9e	-0.14872214
76	0xbd5f655d	-0.054540027
77	0xbd897c38	-0.06713146
78	0x3d59e852	0.053200074
79	0xbd1f9862	-0.038963683
80	0xbdc2209c	-0.09478876
81	0x3e561cda	0.20909443
82	0xbe306058	-0.17224252
83	0x3d204c9f	0.03913557
84	0x3db59957	0.08867138
85	0xbdbbcf83	-0.09170439
86	0xbdbb34b6	-0.09140913
87	0x3e410500	0.18849564
88	0x3dc63531	0.09678114
89	0xbd9b4832	-0.075821295
90	0x3d816cb3	0.06319561
91	0xbe0522fb	-0.13001625
92	0xbd98908b	-0.074494444
93	0xbdc41ae6	-0.09575443
94	0xbdecb51e	-0.11557983
95	0x3db27349	0.08713395
96	0xbdc4471a	-0.09583874
97	0x3e4b3680	0.19845009
98	0x3d217289	0.03941587
99	0x3c9052cc	0.017617606
100	0x3e2f44d9	0.17116107
101	0xbe19bce9	-0.1501347
102	0xbdec0bc4	-0.115256816
103	0xbe0cee43	-0.13762765
104	0xbdf3c2bc	-0.11902377
105	0xbde96cbb	-0.11397692
106	0x3c84ad43	0.016195899
107	0x3e19011d	0.14941831
108	0x3c8a1214	0.016854323
109	0x3d93294c	0.07185611
110	0xbd1915aa	-0.037374176
111	0xbdb95871	-0.09050072
112	0xbe05536c	-0.13020104
113	0xbe50fbe5	-0.2040859
114	0xbd5354e8	-0.051594645
115	0x3dfc81e5	0.12329463
116	0xbe1981d6	-0.14990935
117	0xbdbba221	-0.09161783
118	0xbe3157dc	-0.17318672
119	0x3e45faee	0.19334003
120	0x3e3972e4	0.18110234
121	0xbc2d1cf7	-0.010565988
122	0x3da20744	0.07911542
123	0xbe1627c2	-0.14663604
124	0x3dcb591b	0.09929105
125	0x3c607ecf	0.0137021085
126	0xbdd6d08c	-0.10488996
127	0xbdcf0c8c	-0.10109815
128	0x3d878481	0.0661707
129	0xbb9dc985	-0.0048152828
130	0xbd0845ab	-0.033269566
131	0x3e7ed4a3	0.24885802
132	0xbe32d422	-0.17463735
133	0xbe3a6c8e	-0.18205473
134	0x3e53e1e8	0.20691645
135	0x3dd3b94c	0.10338077
136	0xbe3458c8	-0.17611992
137	0xbd820dd4	-0.06350294
138	0xbe703dba	-0.23461047
139	0xbe82f68b	-0.25578722
140	0xbdceb9b3	-0.10094013
141	0x3e082627	0.13295804
142	0x3dfe0cda	0.12404795
143	0xbe83c322	-0.25734812

encoder.rnn.weight_hh_l0 f4 [24, 24]
0	0x3d840567	0.06446343
1	0x3d5ddec5	0.054167528
2	0xbdf0686f	-0.11738669
3	0x3e2bd0cb	0.16778867
4	0x3e5c329d	0.21503682
5	0x3c83eda6	0.01610453
6	0xbe082526	-0.13295421
7	0xbe235f9f	-0.15954445
8	0x3e11e49b	0.14247362
9	0xbe31b1e7	-0.1735302
10	0xbd418513	-0.04724605
11	0x3d2bc821	0.041938905
12	0x3dbd30a9	0.09237797
13	0xbd77f910	-0.06054026
14	0x3ce5ff18	0.02807574
15	0x3dcf4693	0.10120883
16	0xbe36665f	-0.17812489
17	0xbb91130e	-0.0044273203
18	0x3dd88ec5	0.10574106
19	0xbd3deeb3	-0.04637022
20	0xbe349b83	-0.17637448
21	0xbe0c9f40	-0.13732624
22	0x3dfc1bbb	0.12309977
23	0x3dccc035	0.09997598
24	0x3df24ab3	0.11830654
25	0xbde804cc	-0.1132904
26	0xbe1b8a09	-0.15189375
27	0x3d394102	0.045228012
28	0x3dbe33a8	0.092871964
29	0xbdd95cb9	-0.106133886
30	0x3d8d5e70	0.06902778
31	0x3d301424	0.042987958
32	0x3dec4840	0.11537218
33	0x3e16eef6	0.14739594
34	0xbe359675	-0.17733176
35	0xbe4c90c4	-0.19977099
36	0xbcb0d4a3	-0.021585768
37	0xbd17713e	-0.03697323
38	0xbdb4d672	-0.08829965
39	0x3cffcb9f	0.031225024
40	0xbdae9a03	-0.08525469
41	0x3ce1c22e	0.027558412
42	0x3ddf8533	0.109140776
43	0x3e48d883	0.19613843
44	0x3e261cef	0.16221975
45	0xbde2fd60	-0.11083484
46	0x3e15a72d	0.14614554
47	0xbda98054	-0.0827643
48	0xbe2190a0	-0.15777826
49	0x3c8cc37c	0.017183058
50	0xbe3edcd4	-0.18638927
51	0xbd68453d	-0.056706656
52	0xbe236cc2	-0.15959457
53	0x3b5a6819	0.0033326207
54	0x3e28661d	0.16445203
55	0x3b5fcf22	0.003415056
56	0x3e7a6563	0.24452738
57	0x3da47797	0.080306225
58	0xbd4d06be	-0.050055258
59	0x3ba21393	0.004946181
60	0xbdb6afc7	-0.089202456
61	0xbe10ba19	-0.1413349
62	0xbbe09c39	-0.0068545607
63	0x3e5839dc	0.21115822
64	0xbdc76da2	-0.09737708
65	0xbdddccce	-0.10830079
66	0xbdffe8b3	-0.12495556
67	0xbe0461a2	-0.12927869
68	0x3c843328	0.016137674
69	0x3d3ee607	0.04660609
70	0x3dd57a0d	0.1042367
71	0x3db30f53	0.08743157
72	0xbd86f93e	-0.06590508
73	0xbe06c776	-0.13162026
74	0x3d3a888c	0.045540377
75	0xbe5658d3	-0.20932321
76	0x3d2b7479	0.041859124
77	0xbe102e0d	-0.14080067
78	0xbe50cb3f	-0.20390032
79	0xbdaa203c	-0.083069295
80	0x3e017fe2	0.1264644
81	0x3d1c17ae	0.03810852
82	0xbe245d1d	-0.16051145
83	0x3e08a9f4	0.13346082
84	0xbe23cd2b	-0.15996234
85	0xbb1e6122	-0.0024166782
86	0x3e01191d	0.12607236
87	0xbdddd164	-0.10830954
88	0x3a4071f9	0.0007341202
89	0x3d88a82d	0.06672702
90	0xbd924e1f	-0.07143807
91	0x3e01ab50	0.12663007
92	0xbe07f290	-0.13276124
93	0xbe5d985f	-0.21640156
94	0x3d5e3c0a	0.054256476
95	0xbdb63701	-0.0889721
96	0xbddca063	-0.10772779
97	0xbd56836a	-0.05237142
98	0xbd125836	-0.035728656
99	0x3dd025e9	0.10163481
100	0xbd9bf41e	-0.07614921
101	0x3dfb5555	0.12272135
102	0x3e384e92	0.17998722
103	0xbb92616f	-0.0044671814
104	0x3e202c83	0.1564198
105	0x3e4a0e9e	0.19732139
106	0xbdde2228	-0.108463585
107	0xbcf12762	-0.029437725
108	0xbdde076a	-0.10841258
109	0x3c1a98b0	0.009435818
110	0xbe1ff323	-0.15620093
111	0x3e3b7137	0.18304907
112	0xbd998631	-0.07496298
113	0x3d74e642	0.059789903
114	0xbd95c388	-0.07312685
115	0x3c24ea97	0.010065696
116	0x3e28a34e	0.16468546
117	0xbe081673	-0.13289814
118	0xbe68222b	-0.22669284
119	0x3de1a82f	0.110184066
120	0xbe358e13	-0.17729978
121	0x3e2af3f9	0.1669463
122	0xbd929891	-0.07158006
123	0x3d37112d	0.044694114
124	0x3d7c8c28	0.0616571
125	0x3dbfd811	0.09367383
126	0xbd98eb16	-0.07466714
127	0xbc9bcfa0	-0.019019902
128	0x3d900f4f	0.0703417
129	0x3e1eae9a	0.15496293
130	0x3d58aa4c	0.052896783
131	0x3e382b04	0.17985159
132	0xbdc3ba96	-0.09557073
133	0xbe3c2b4f	-0.18375896
134	0x3d17a420	0.037021756
135	0x39e68fd1	0.0004397617
136	0x3dbd77e9	0.09251387
137	0xbe0027b6	-0.12515149
138	0xbd985e6b	-0.07439884
139	0x3e5d3c8d	0.2160513
140	0xbe2f08bd	-0.17093177
141	0xbdab0455	-0.08350436
142	0x3d989e5d	0.074520804
143	0xbe19d09d	-0.15020986
144	0xbc967bc7	-0.018369569
145	0xbddcac0d	-0.107750036
146	0x3e0ce959	0.1376089
147	0xbe0dc378	-0.13844097
148	0x3ddb1d34	0.106989294
149	0x3b709ab8	0.0036713313
150	0xbcaacedc	-0.020850591
151	0x3dae95ff	0.08524703
152	0x3e4113a8	0.18855155
153	0xbe4438eb	-0.19162337
154	0xbcf549d5	-0.029942432
155	0xbcdc7769	-0.026912408
156	0x3e010503	0.12599568
157	0xbe0c2f74	-0.13689977
158	0xbe0e5fd6	-0.13903746
159	0xbe159b96	-0.14610133
160	0xbc0b5f58	-0.008506618
161	0x3c3a3112	0.011364238
162	0x3d7d10bb	0.061783534
163	0x3e3e3ae1	0.18577148
164	0x3e2d2204	0.16907507
165	0x3e20a72a	0.15688768
166	0x3d4851d8	0.048906177
167	0x3e1fd2ec	0.15607804
168	0x3d9ba284	0.07599357
169	0x3d066734	0.032813266
170	0x3d1fa5aa	0.03897635
171	0xbd81c868	-0.063370526
172	0xbe31d870	-0.1736772
173	0xbe12ba5b	-0.14328901
174	0xbca2d058	-0.019874737
175	0xbe07b60e	-0.13253042
176	0xbc2be34a	-0.010491202
177	0x3a25ae54	0.00063202274
178	0x3d9b3c98	0.07579917
179	0x3de9d73c	0.11418006
180	0x3e27fc66	0.16404876
181	0x3da633b1	0.08115328
182	0xbe0727b6	-0.13198742
183	0x3d56e339	0.05246279
184	0xbe010596	-0.12599787
185	0x3c7e6e79	0.015529268
186	0xbc3ea25c	-0.011635389
187	0x3db17d24	0.08666447
188	0xbe2998a5	-0.16562136
189	0xbd98482c	-0.07435641
190	0x3dbe7ae1	0.09300781
191	0xbe45b488	-0.19307148
192	0xbd951567	-0.07279473
193	0x3dc45040	0.09585619
194	0x3c4156e7	0.011800504
195	0x3d2b13bd	0.04176687
196	0x3e22bb35	0.15891726
197	0xbe45e6fd	-0.19326396
198	0x3e0a4c29	0.13505615
199	0xbdab424c	-0.083622545
200	0x3d108a3d	0.035288084
201	0xbe1bb292	-0.15204838
202	0xbe336919	-0.1752056
203	0x3cb91201	0.022591593
204	0xbe110bec	-0.14164704
205	0xbdf62486	-0.12018685
206	0xbda42148	-0.080141604
207	0x3e23c21a	0.15992013
208	0xbdbb3dc9	-0.09142644
209	0x3cbc8098	0.023010537
210	0xbdb16652	-0.08662094
211	0x3e2e540e	0.17024252
212	0xbd299e6b	-0.041410845
213	0xbc78987b	-0.015173073
214	0x3dababeb	0.083824
215	0x3e10a94a	0.14127079
216	0x3e070aaf	0.13187669
217	0x3e0af9ad	0.13571806
218	0xbde48650	-0.111584306
219	0x3e02aad2	0.12760475
220	0xbda89da0	-0.082331896
221	0xbde1a10f	-0.110170476
222	0x3e0f1261	0.13971855
223	0x3e5443c7	0.2072898
224	0x3db117cd	0.08647118
225	0x3e149c6f	0.145128
226	0x3dd18c48	0.10231835
227	0xbe0620fd	-0.13098522
228	0xbd906932	-0.070513144
229	0x3dce55c0	0.10074949
230	0x3d7ea974	0.06217332
231	0xbd8e3e0a	-0.06945427
232	0x3df755c5	0.12076906
233	0x3d69b7c7	0.05706003
234	0x3db9fcb8	0.090814054
235	0xbd105c41	-0.03524423
236	0xbe03ec5d	-0.12883134
237	0x3df20772	0.11817826
238	0xbb852fda	-0.0040645422
239	0x3dc39a11	0.0955087
240	0x3dda16be	0.10648869
241	0x3df77097	0.12082022
242	0x3dedbbb9	0.11608071
243	0x3dea6f2a	0.11446984
244	0xbd01ee01	-0.03172112
245	0xbdce26eb	-0.10066017
246	0x3e30347e	0.17207524
247	0xbdd186dc	-0.102308005
248	0xbdc23857	-0.09483402
249	0x3e514969	0.2043816
250	0xbdcb2a2c	-0.09920153
251	0x3e028428	0.12745726
252	0x3d584828	0.05280319
253	0x3d3328f5	0.04374023
254	0x3dbc7b9e	0.092032656
255	0xbd935942	-0.07194759

encoder.rnn.bias_ih_l0 f4 [24]
0	0x3e54f2ad	0.20795698
1	0xbb12914c	-0.0022364436
2	0xbdb1370e	-0.08653079
3	0x3df25d14	0.118341595
4	0x3e00d458	0.12581003
5	0x3dcbce74	0.09951487
6	0x3e0a5632	0.13509443
7	0xbe3a72c5	-0.18207844
8	0x3dd3cd22	0.1034186
9	0xbc16cc05	-0.0092039155
10	0xbde44941	-0.111467846
11	0xbdfa8e0c	-0.122341245
12	0xbd5edf94	-0.05441244
13	0xbe00e36d	-0.12586756
14	0xbdc35c18	-0.0953905
15	0x3dd685e0	0.104747534
16	0xbe0ab706	-0.1354638
17	0x3d27231d	0.04080497
18	0x3d2755d9	0.040853355
19	0x3d927505	0.07151226
20	0xbda77f47	-0.08178573
21	0x3da8866e	0.082287654
22	0x3ce4d880	0.027935266
23	0x3d20c127	0.039246704

encoder.rnn.bias_hh_l0 f4 [24]
0	0x3e134828	0.14382994
1	0x3d4e8eaa	0.050429024
2	0x3dcbf46c	0.09958729
3	0x3e13ff05	0.14452751
4	0x3d68d81b	0.05684672
5	0xbc6128e0	-0.0137426555
6	0xbcd874df	-0.026422916
7	0xbd742150	-0.05960208
8	0x3b61f439	0.0034477843
9	0x3e1b8de0	0.1519084
10	0x3dc5bba4	0.0965493
11	0x3c164ee8	0.009174086
12	0xbdce3d80	-0.10070324
13	0x3db253b0	0.087073684
14	0x3cc79877	0.024364693
15	0x3da4235a	0.08014555
16	0xbdbf54fa	-0.0934238
17	0x3d9d7aff	0.07689475
18	0x3dbacfa0	0.091216326
19	0xbe1527a6	-0.14565906
20	0xbe2288e5	-0.15872534
21	0x3b44267d	0.0029930167
22	0x3cbec19c	0.02328568
23	0x3e1eae74	0.15496236

encoder.rnn.weight_ih_l1 f4 [24, 24]
0	0x3e91195f	0.2833967
1	0xbd88a67d	-0.0667238
2	0xbe6b640d	-0.22987385
3	0x3e5567bd	0.20840354
4	0x3d67e89a	0.05661831
5	0xbd8b08b5	-0.0678877
6	0x3e1c8d8e	0.15288374
7	0xbd9588e3	-0.073015
8	0xbdc9add2	-0.09847607
9	0x3ca0056c	0.019533835
10	0x3e02ad39	0.12761392
11	0xbe153c38	-0.14573753
12	0xbe4463a3	-0.19178633
13	0xbd56bf72	-0.05242867
14	0x3e30d683	0.1726933
15	0x3c355b9f	0.011069207
16	0x3dabd846	0.0839086
17	0xbdc100aa	-0.09423955
18	0x3d8b94c4	0.06815484
19	0xbe78ae2a	-0.24285188
20	0x3d9fe947	0.07808166
21	0xbe56a9fd	-0.20963283
22	0xbd4ff422	-0.050769933
23	0x3e802f6b	0.25036177
24	0x3cc12f21	0.023582043
25	0xbd9db175	-0.07699863
26	0xbe082b4e	-0.1329777
27	0x3e4c51ac	0.1995303
28	0x3e503425	0.20332392
29	0xbc1e8ade	-0.009676663
30	0xbcc53e19	-0.024077462
31	0xbc7c6de1	-0.015407057
32	0xbe1a7bad	-0.15086241
33	0xbcf69388	-0.030099645
34	0x3c97f23b	0.018548122
35	0xbe02ebea	-0.12785307
36	0x3dcbe7cc	0.09956321
37	0xbe6066e7	-0.21914254
38	0xbc12b281	-0.008953691
39	0x3d330649	0.043707166
40	0x3e2d6f5f	0.16937016
41	0x3db464d2	0.088082924
42	0xbdb07422	-0.086159006
43	0xbae01a8e	-0.0017097758
44	0x3de7d1df	0.113193266
45	0xbcda6657	-0.026660128
46	0x3cd3ba75	0.025845746
47	0xbda37daa	-0.07982953
48	0x3e4dea95	0.20109017
49	0x3e369331	0.17829587
50	0xbe487c1a	-0.19578591
51	0xbe091b65	-0.13389356
52	0x3e00e00c	0.12585467
53	0x3d170531	0.036870185
54	0xbd0a09ce	-0.033700757
55	0x3e2e96e8	0.17049754
56	0x3dc80bc6	0.097678706
57	0x3ca70b09	0.020391004
58	0x3e143f12	0.14477184
59	0x3dde3db0	0.1085161
60	0xbe4ed562	-0.20198587
61	0x3d881b3f	0.06645822
62	0xbd8b50db	-0.06802531
63	0x3d929e0a	0.0715905
64	0xbe03c20d	-0.12866993
65	0xbd6b789b	-0.057488065
66	0x3e351dfa	0.17687216
67	0x3cf22748	0.029559746
68	0xbd269ad1	-0.04067499
69	0x3c61f0c6	0.013790315
70	0xbdf6f954	-0.12059274
71	0x3db667f2	0.08906545
72	0xbdd533ae	-0.10410248
73	0xbe1e6f28	-0.1547209
74	0x3c27b461	0.010235877
75	0x3e4ee034	0.20202714
76	0x3cbfb31d	0.023400838
77	0x3e3b6e8b	0.18303888
78	0x3c61ec97	0.013789318
79	0x3e1f907b	0.15582459
80	0xbdac5eb6	-0.08416502
81	0xbdb34731	-0.08753813
82	0x3e4bde6e	0.19909069
83	0xbe2d7d02	-0.16942218
84	0x3e4037e4	0.1877132
85	0xbc27062f	-0.010194345
86	0xbdb5e6a5	-0.088818826
87	0x3d651f34	0.05593796
88	0xbd192a4d	-0.037393857
89	0xbd47bb07	-0.048762348
90	0xbd2b3d25	-0.04180636
91	0xbbd55798	-0.006510686
92	0xbd837277	-0.06418317
93	0xbe2e754d	-0.17036934
94	0x3db22a78	0.086995065
95	0xbd3dea4a	-0.046366014
96	0xbdb9ede8	-0.0907858
97	0x3e0cff3f	0.13769244
98	0xbd77b073	-0.06047101
99	0xbdbf0960	-0.0932796
100	0x3dd26bd3	0.10274472
101	0x3d04f7c3	0.032462846
102	0x3dc4f722	0.09617449
103	0xbe0f313e	-0.13983628
104	0xbd90c6bf	-0.07069158
105	0x3d8f2f63	0.0699146
106	0x3e09637c	0.13416857
107	0x3c901b9b	0.017591288
108	0xbdf417bf	-0.11918592
109	0xbe336011	-0.17517115
110	0xbdd19dbe	-0.10235165
111	0xbdb47b25	-0.088125505
112	0x3bb6c724	0.0055779386
113	0x3d0cf76d	0.03441565
114	0x3dd7b8f1	0.10533322
115	0xbd2601cc	-0.040529057
116	0xbe30fd15	-0.17284043
117	0xbd0d5c50	-0.034511864
118	0x3d340b47	0.043956067
119	0x3e2402e7	0.16016732
120	0x3b9f66b5	0.0048645386
121	0x3d007499	0.031361196
122	0x3dbe2f82	0.09286405
123	0x3dd7198a	0.10502918
124	0xbe2b861d	-0.16750379
125	0x3e0674a5	0.13130434
126	0x3d404e2b	0.046949547
127	0xbe426837	-0.18985067
128	0xbe136046	-0.14392194
129	0xbe0e0144	-0.1386767
130	0xbe175ef8	-0.14782321
131	0x3c833dcc	0.016020678
132	0xbe21a1e7	-0.15784417
133	0xbe239f5f	-0.15978764
134	0x3df8344f	0.12119352
135	0xbe43d884	-0.19125563
136	0x3c135c63	0.008994195
137	0xbdc981b4	-0.09839192
138	0x3e5cddcd	0.21568985
139	0x3de5e746	0.112257525
140	0x3dd3ba0d	0.10338221
141	0xbd67d468	-0.05659905
142	0xbd08acd4	-0.033367947
143	0xbe0f8d62	-0.14018777
144	0x3e4fa4d4	0.2027772
145	0xbd56c0ce	-0.052429967
146	0xbe39b3ee	-0.18135044
147	0xbe5fdc37	-0.21861349
148	0x3ddd9065	0.10818557
149	0x3e0e3d3f	0.13890551
150	0xbe20372e	-0.1564605
151	0x3e4deba5	0.20109423
152	0x3bc23e89	0.005927865
153	0x3cbff2c7	0.023431195
154	0x3e12cb07	0.14335261
155	0xbdd8691e	-0.105669245
156	0xbe44c174	-0.19214422
157	0xbde13cd3	-0.109979294
158	0x3e1f1011	0.15533473
159	0x3da35bac	0.079764694
160	0xbdaefdeb	-0.08544525
161	0x3e02b8f4	0.12765867
162	0x3dbf585b	0.09343024
163	0x3e059716	0.13045916
164	0xbe1f4af5	-0.15555938
165	0xbe4b0780	-0.1982708
166	0x3ddb7b0f	0.10716831
167	0xbd4a4785	-0.049384613
168	0x3d1b1eb3	0.037871074
169	0xbe7bbb29	-0.24583115
170	0xbea46bba	-0.3211344
171	0xbe1536b8	-0.14571655
172	0xbe33ba04	-0.17551428
173	0x3e5095c3	0.2036963
174	0x3d66135e	0.056170814
175	0x3e54c9b1	0.20780064
176	0x3e410ca4	0.18852478
177	0x3b7b74ac	0.0038369102
178	0x3e5f3229	0.21796478
179	0xbd69b331	-0.057055656
180	0x3e3b8637	0.18312918
181	0xbd6ac917	-0.05732068
182	0x3bc2b65a	0.005942148
183	0x3da99742	0.08280803
184	0x3de56a79	0.11201949
185	0xbe3f6989	-0.18692602
186	0x3ddcfe3a	0.10790677
187	0xbc1482e0	-0.009064406
188	0x3d9eb2b4	0.07748929
189	0x3cf33a38	0.029690847
190	0xbd68a070	-0.05679363
191	0xbd0a24f8	-0.033726662
192	0xbdfa0aa7	-0.12209063
193	0x3dbc2dd9	0.09188432
194	0xbdf9d6ef	-0.121991985
195	0xbcd90036	-0.026489358
196	0x3dafeb17	0.08589762
197	0xbe20d867	-0.15707551
198	0xbdc7f5c3	-0.09763672
199	0xbdae0519	-0.08497066
200	0x3e113beb	0.14183013
201	0x3e042740	0.12905598
202	0xbd0dfcbe	-0.03466486
203	0xbe5ee688	-0.21767628
204	0xbe0c32ed	-0.13691302
205	0xbddb792c	-0.10716471
206	0xbc0d3bea	-0.008620242
207	0x3de3a774	0.111159235
208	0x3e231667	0.15926515
209	0x3e21173c	0.1573152
210	0xbe1d5a31	-0.15366437
211	0x3e49441a	0.19654885
212	0xbda48f89	-0.0803519
213	0xbdd2e8fe	-0.10298346
214	0x3e0ce1bc	0.13757986
215	0xbe3e10d1	-0.18561102
216	0x3ce772c0	0.02825296
217	0x3e27564c	0.16341513
218	0x3d52005f	0.051269885
219	0x3e2a8486	0.16652116
220	0xbe531d75	-0.20616706
221	0x3d3a3a5c	0.045465812
222	0x3da0a6d6	0.078443214
223	0xbdc0943d	-0.09403274
224	0x3d2af248	0.041734964
225	0x3d279bf3	0.04092021
226	0x3ca3ae76	0.01998065
227	0xbdea6943	-0.11445858
228	0x3d8e99f7	0.0696296
229	0x3e37a01a	0.17932168
230	0xbe3880bf	-0.18017863
231	0x3d8786c8	0.06617504
232	0xbe1a01c2	-0.15039733
233	0x3dc517e0	0.096236944
234	0x3de04584	0.10950759
235	0x3e1c4022	0.1525884
236	0xbd937a94	-0.07201114
237	0x3e17931a	0.14802209
238	0xbe31bd22	-0.17357305
239	0x3de1734e	0.11008321
240	0x3e671fe8	0.22570765
241	0x3dd9203b	0.106018506
242	0xbe2f6170	-0.17127013
243	0xbdea184f	-0.11430418
244	0x3e33a01c	0.17541546
245	0x3c4366a5	0.011926328
246	0xbcd99d22	-0.026564185
247	0x3df43ee1	0.11926056
248	0xbd4a4317	-0.049380388
249	0xbd40751e	-0.04698669
250	0xbe332e6b	-0.17498176
251	0x3e47088b	0.19436853
252	0x3de45dcc	0.11150703
253	0xbd1eec60	-0.038799644
254	0x3dd80597	0.10547941
255	0x3e250fe6	0.16119346

encoder.rnn.weight_hh_l1 f4 [24, 24]
0	0x3dd3a766	0.10334663
1	0xbe22f448	-0.15913498
2	0xbdb828fe	-0.08992194
3	0x3d47af01	0.04875088
4	0x3e356504	0.17714316
5	0x3d86cf51	0.06582511
6	0x3d2de284	0.04245235
7	0x3e2a61cf	0.16638874
8	0x3d439ad9	0.047755096
9	0x3d78fa37	0.0607855
10	0x3e0bb3d9	0.13642825
11	0x3e0ad9c4	0.13559633
12	0x3d2b6e14	0.041853026
13	0xba091caf	-0.00052304094
14	0xbe0ef84a	-0.13961902
15	0xbe536fad	-0.2064807
16	0x3dfeb070	0.124359965
17	0x3e00a4d5	0.12562878
18	0xbcfe7727	-0.031062676
19	0xbdf036e3	-0.11729219
20	0xbdaf3f10	-0.0855695
21	0xbdf9cb41	-0.12196971
22	0xbcf76b9a	-0.030202676
23	0x3e0200c5	0.12695606
24	0x3d62da7c	0.055384144
25	0x3da2f5f5	0.07957069
26	0xbe051914	-0.12997848
27	0xbd527352	-0.05137951
28	0xbe05ecbb	-0.13078587
29	0x3d6a251c	0.057164297
30	0x3d472465	0.048618693
31	0xbc46d6ac	-0.012136143
32	0xbe18dfce	-0.14929125
33	0x3de72025	0.11285428
34	0xbe1b823b	-0.15186398
35	0xbdfe59e5	-0.1241949
36	0xbe11e28d	-0.14246579
37	0x3be40df2	0.00695967
38	0xbe725d8f	-0.23668502
39	0xbdf5e8dc	-0.12007305
40	0xbc8d2699	-0.017230319
41	0xb9fe48f2	-0.00048501004
42	0x3e01f15d	0.12689729
43	0xbdf50548	-0.11963898
44	0x3d2fd70c	0.042929694
45	0xbd45c798	-0.04828605
46	0x3db5a27c	0.08868882
47	0x3d5deab2	0.0541789
48	0xbd9fc9c5	-0.07802156
49	0x3e1ba53d	0.15199752
50	0xbe15bf02	-0.14623645
51	0x3da91d45	0.08257536
52	0x3e211f14	0.15734512
53	0xbdea3157	-0.11435192
54	0xbdc28cd4	-0.09499517
55	0x3d3b43aa	0.045718826
56	0xbc0da7e1	-0.0086459825
57	0xbdb92951	-0.090410836
58	0x3e011933	0.12607269
59	0xbcd42285	-0.025895366
60	0xbd98fca3	-0.07470062
61	0x3c3356a1	0.010945947
62	0x3e226a64	0.15860897
63	0xbd77499e	-0.06037294
64	0xbd4037fc	-0.04692839
65	0x3dac0825	0.08399991
66	0x3d80d142	0.06289913
67	0x3cc77e93	0.024352347
68	0xbd82adba	-0.06380792
69	0xbdb87c7f	-0.09008121
70	0xbd768f04	-0.060194984
71	0xbe03f247	-0.1288539
72	0xbd83fea0	-0.0644505
73	0x3d0bc7d8	0.034126133
74	0xbd5e0a4f	-0.05420905
75	0x3e475f85	0.19470032
76	0xbd9d11b8	-0.07669395
77	0x3dc0a0bb	0.09405657
78	0xbd167a4c	-0.036737725
79	0xbd574051	-0.05255157
80	0xbd13540a	-0.035968818
81	0xbdc1a758	-0.094557464
82	0x3ca20c66	0.019781303
83	0xbd42579e	-0.04744684
84	0x3d24c78a	0.040229358
85	0xbd7e11e6	-0.062028788
86	0x3c8d2994	0.01723174
87	0x3e2b32fd	0.16718669
88	0xba196de6	-0.0005852863
89	0xbcbb6482	-0.022875074
90	0xbd75ae7f	-0.059980866
91	0xbd49e490	-0.04929024
92	0x3d0df66d	0.034658838
93	0xbd0f20bb	-0.034943324
94	0xbe055328	-0.13020003
95	0x3d9a685f	0.075394385
96	0x3cfa8108	0.030579105
97	0x3e0d9eb8	0.13830078
98	0x3d91a70e	0.07111941
99	0xbdbd0135	-0.09228746
100	0xbdb40cfd	-0.0879154
101	0xbe2e261a	-0.17006722
102	0xbdac3422	-0.08408381
103	0x3dc12ab9	0.09431977
104	0xbe31db45	-0.17368801
105	0x3ba08f5a	0.0048999013
106	0x3e106696	0.14101633
107	0xbdbe372b	-0.09287866
108	0xbdcb956f	-0.099406116
109	0xbdac5343	-0.084143184
110	0x3d53c960	0.051705718
111	0xbd3ec431	-0.04657382
112	0x3d97c714	0.07411018
113	0xbd3b5db9	-0.045743678
114	0xbd2500f9	-0.04028413
115	0x3da44aa3	0.08022048
116	0xbd4c3858	-0.04985842
117	0x3e25f089	0.16205038
118	0xbd5987ff	-0.05310821
119	0xbd93b723	-0.07212665
120	0xbc1b855c	-0.009492245
121	0x3d82b136	0.063814566
122	0xbd536832	-0.05161304
123	0x3db4dc44	0.08831075
124	0x3df983f5	0.12183372
125	0x3e11ce6b	0.14238898
126	0xbda9d899	-0.08293266
127	0xbd7a23ca	-0.061069287
128	0x3e266153	0.16248064
129	0xbcdb193b	-0.02674543
130	0xbdc51716	-0.09623544
131	0xbd4b56f5	-0.049643476
132	0xbddc4aa7	-0.10756426
133	0xbe393362	-0.18086007
134	0x3d10c5ff	0.035345074
135	0xbe1625f5	-0.14662917
136	0x3e148d80	0.14507103
137	0xbd5d7d15	-0.054074366
138	0xbbdcaea2	-0.006734685
139	0xbd1d54bd	-0.03841089
140	0x3e5a6f5e	0.21331546
141	0x3cb82a68	0.022481158
142	0x3e1172f3	0.14204006
143	0x3dd350b9	0.10318131
144	0xbd7d611b	-0.061860185
145	0x3d00b533	0.031422805
146	0x3e3c9b0f	0.18418525
147	0xbd556d94	-0.052106455
148	0xbda84771	-0.08216751
149	0x3e1248ad	0.14285536
150	0x3defadeb	0.11703094
151	0xbe0509ed	-0.12992068
152	0xbda30f9c	-0.079619616
153	0xbdc5964d	-0.09647808
154	0xbd8d4442	-0.06897785
155	0xbd8cfa76	-0.06883709
156	0xbe13417f	-0.14380454
157	0xbd954880	-0.07289219
158	0xbd95af84	-0.073088676
159	0xbdd0bc78	-0.101921976
160	0x3d24babf	0.040217157
161	0x3de6555e	0.11246751
162	0x3d30747a	0.04307983
163	0xbce851d3	-0.02835933
164	0x3cc94e7a	0.024573553
165	0xbd885ee2	-0.066587225
166	0x3ca08dfe	0.019598957
167	0xbe2bb613	-0.16768675
168	0x3ddd7884	0.10814002
169	0x3e0af990	0.13571763
170	0x3d8a8a8c	0.06764707
171	0x3ce7245a	0.028215576
172	0x3df7e3ad	0.121039726
173	0x3e51e080	0.20495796
174	0xbdc884b4	-0.09790936
175	0xbe0b83c3	-0.13624482
176	0x3cb4dd76	0.022078257
177	0xbe15fd82	-0.14647487
178	0xbe4659fb	-0.19370262
179	0xbdac50d0	-0.08413851
180	0x3e31b8ea	0.17355695
181	0x3e19a7bd	0.15005393
182	0xbdb84a2b	-0.089985214
183	0xbe1b0f87	-0.15142642
184	0xbe44cc0e	-0.19218466
185	0x3ddede81	0.10882283
186	0x3e457a2d	0.19284888
187	0x3e3dd0d0	0.18536687
188	0xbc7837ca	-0.01515002
189	0xbdd0e812	-0.10200514
190	0x3ca1eb22	0.01976544
191	0xbd3abecd	-0.045592118
192	0xbcb42079	-0.02198814
193	0x3e63c75e	0.22244021
194	0xbcda6a23	-0.026661938
195	0xb9b89366	-0.00035205035
196	0x3d84d40a	0.06485756
197	0xbd8e08e9	-0.06935293
198	0xbdd187a1	-0.10230947
199	0xbe247eb8	-0.16063964
200	0x3de640d7	0.11242836
201	0x3dbb6863	0.091507696
202	0xbe36ea19	-0.17862739
203	0x3dcf79e6	0.10130672
204	0xbcf71878	-0.030163035
205	0xbd8a8436	-0.067634985
206	0x3d730679	0.059332345
207	0xbce456d8	-0.027873442
208	0x3ade0a78	0.0016940376
209	0xbe6970ce	-0.22796938
210	0xbe1e2c28	-0.15446532
211	0x3cca3259	0.02468221
212	0xbd96e012	-0.07366957
213	0x3c9483f3	0.018129325
214	0xbd7b56eb	-0.06136219
215	0x3db2c6f6	0.08729355
216	0x3cfbd45f	0.030740915
217	0xbdb10b7f	-0.08644771
218	0x3e2d1707	0.16903315
219	0xbdf5f2f6	-0.12009232
220	0xbdefe5f1	-0.1171378
221	0x3d3fc33b	0.046817046
222	0xbd860870	-0.06544578
223	0x3deca36a	0.11554606
224	0x3e40faec	0.18845719
225	0x3d925c84	0.07146552
226	0xbcbd2ffe	-0.023094174
227	0x3d2cc2f7	0.04217812
228	0xbdf058a1	-0.117356546
229	0x3d9b23e9	0.07575209
230	0xbda421b5	-0.080142416
231	0xbe334d08	-0.17509854
232	0x3da1e208	0.0790444
233	0xbda5c518	-0.08094233
234	0x3e32d603	0.17464451
235	0x3e1ee971	0.15518738
236	0x3e42904a	0.19000354
237	0xbe3375aa	-0.17525354
238	0x3e554e9b	0.20830767
239	0xbdf569ad	-0.11983047
240	0xbc21aa69	-0.009867289
241	0x3d6b59b8	0.05745861
242	0xbe1d942f	-0.15388559
243	0xbd9d2636	-0.07673304
244	0x3e0192c7	0.12653647
245	0x3e196769	0.14980854
246	0xbe29e5f1	-0.16591622
247	0xbbf4b36a	-0.007467677
248	0x3ce569b4	0.028004505
249	0x3dbac7f1	0.09120167
250	0x3e290bcc	0.16508406
251	0x3e3b1916	0.18271288
252	0xba02b9c6	-0.0004986789
253	0xbd048377	-0.032351937
254	0xbde000ff	-0.1093769
255	0xbd8fe346	-0.07025771

encoder.rnn.bias_ih_l1 f4 [24]
0	0x3d1167b3	0.035499286
1	0xbdb911ca	-0.09036596
2	0x3e0fca05	0.14041908
3	0xbdbbdc0d	-0.09172831
4	0x3e3fadc9	0.18718638
5	0x3e58ed13	0.21184187
6	0x3d465613	0.04842193
7	0xbdb91533	-0.090372466
8	0xbe20a41e	-0.15687606
9	0x3e3c7a98	0.18406141
10	0x3bc0dd1f	0.0058857347
11	0x3d2623b6	0.0405614
12	0x3d1a05f1	0.037603322
13	0x3dfd686c	0.123734325
14	0x3b090f37	0.002091361
15	0xbdc12e20	-0.09432626
16	0x3d702464	0.058628455
17	0xbcc15402	-0.023599628
18	0xbdcfe76b	-0.10151561
19	0xbe1dfdfa	-0.15428916
20	0xbdf3f93a	-0.119127706
21	0xbd9e6267	-0.077336125
22	0xbe4e1949	-0.20126833
23	0xbc5a8dbb	-0.013339455

encoder.rnn.bias_hh_l1 f4 [24]
0	0xbe27202a	-0.16320863
1	0x3de95ebf	0.113950245
2	0x3e35ccb7	0.17753874
3	0x3e38825e	0.18018481
4	0xbe4c9040	-0.19976902
5	0xbdf79adb	-0.12090083
6	0x3e2a6cdd	0.1664309
7	0x3e1f6b28	0.1556822
8	0xbdce9cce	-0.10088502
9	0x3dc0bb6c	0.09410748
10	0xbdcc79b3	-0.0998415
11	0xbd8d9c62	-0.06914593
12	0x3d72752a	0.059193768
13	0x3d99e185	0.075137176
14	0xbe5e7f74	-0.21728307
15	0x3c8e05f5	0.017336825
16	0x3aa2bd62	0.001241606
17	0xbe43db99	-0.19126739
18	0xbd2fdbec	-0.042934343
19	0xbd6e1317	-0.058123674
20	0xbe6169f7	-0.22013079
21	0x3de59b41	0.11211253
22	0x3e0fb672	0.14034441
23	0xbdb18e43	-0.086697124

encoder.rnn.weight_ih_l2 f4 [24, 24]
0	0x3daf4d63	0.08559682
1	0x3e6070dd	0.21918054
2	0xbdb2f8cc	-0.087388605
3	0x3d6c4427	0.057682183
4	0x3e26376e	0.16232082
5	0x3d91594c	0.0709711
6	0xbcc96e05	-0.024588594
7	0x3dfd5ebb	0.12371584
8	0x3dffbc25	0.124870576
9	0x3de714a1	0.112832315
10	0xbcf3204d	-0.029678488
11	0xbe44f536	-0.19234166
12	0x3e296099	0.16540755
13	0xbcc53ccf	-0.024076847
14	0x3e4e161f	0.20125626
15	0x3dfc70b9	0.12326188
16	0xbdb249d6	-0.08705489
17	0x3b9fb969	0.0048743975
18	0xbd9277dd	-0.07151768
19	0x3d003824	0.03130354
20	0x3d2a699f	0.041604634
21	0x3df4570e	0.11930667
22	0x3e16f4c3	0.14741807
23	0xbc9bcd57	-0.019018812
24	0x3e845032	0.25842434
25	0xbd99707e	-0.07492159
26	0xbe72d0a1	-0.23712398
27	0x3ea02aa9	0.31282547
28	0xbe5645fa	-0.20925131
29	0x3e372fed	0.17889376
30	0x3d3277ad	0.043571163
31	0x3e54a137	0.20764624
32	0xbe4ca0d6	-0.19983229
33	0xbe4c84a2	-0.1997247
34	0x3d1e2033	0.038604926
35	0xbdfd5f8d	-0.123717405
36	0x3db92072	0.090393916
37	0xbddd18ce	-0.10795747
38	0x3e579f62	0.21056893
39	0x3e108209	0.14112104
40	0xbca02752	-0.01955
41	0xbe3513ac	-0.17683285
42	0x3e313e44	0.17308909
43	0x3e2c7446	0.1684123
44	0xbdd20037	-0.10253947
45	0x3dbbd302	0.09171106
46	0xbde5f113	-0.11227622
47	0xbe308280	-0.17237282
48	0xbd4ea8e0	-0.05045402
49	0x3e33b7fc	0.17550653
50	0xbe52d8c0	-0.20590496
51	0xbe3d6ed6	-0.18499312
52	0x3d67e685	0.056616325
53	0x3e04bf9b	0.12963717
54	0xbdabb577	-0.08384221
55	0xbdf6e02e	-0.12054478
56	0x3e3b8a6c	0.18314523
57	0xbd898c61	-0.06716228
58	0xbb31b84c	-0.0027117906
59	0xbdd7acea	-0.105310276
60	0xbe283af6	-0.16428742
61	0xbe325e4d	-0.17418785
62	0xbd73ec1a	-0.059551336
63	0xbd45ed35	-0.04832192
64	0x3d12e255	0.03586038
65	0xbd32f1b4	-0.043687537
66	0x3a7afca5	0.000957439
67	0xbe2e85a1	-0.17043163
68	0x3e51fa92	0.20505741
69	0x3de66f23	0.112516664
70	0xbdeea9d9	-0.116534896
71	0x3d9f5116	0.07779138
72	0xbcfcef9d	-0.030875975
73	0xbd858dd9	-0.06521196
74	0x3e30175a	0.17196408
75	0xbdfb0401	-0.12256623
76	0x3e1ab46f	0.15107892
77	0xbdb5ca51	-0.088764794
78	0xbde52341	-0.11188365
79	0x3e136375	0.14393409
80	0x3e0b9ac3	0.13633256
81	0xbb1b977f	-0.0023741422
82	0xbe039bc7	-0.12852393
83	0xbe278c33	-0.16362076
84	0x3e475204	0.1946488
85	0xbdc4a3de	-0.09601568
86	0xbe159b49	-0.14610018
87	0xbd6e9b30	-0.058253467
88	0x3e2ff7c8	0.17184365
89	0x3b8668c5	0.004101845
90	0xbe0ca63a	-0.13735285
91	0xbe379308	-0.17927182
92	0x3e3612e8	0.1778065
93	0xbdf462ce	-0.11932908
94	0xbdcfd4b4	-0.10147992
95	0x3e0f7533	0.14009552
96	0xbdf52ac2	-0.11971046
97	0xbdf60715	-0.120130695
98	0x3e3a8893	0.18216161
99	0xbe2bfcbb	-0.16795628
100	0xbddff70b	-0.109357916
101	0x3e0ec45c	0.13942093
102	0x3deeeef8	0.116666734
103	0x3e0f5fa6	0.1400133
104	0x3dc54767	0.096327595
105	0x3d82d166	0.06387596
106	0xbd3c6885	-0.045998115
107	0x3dc4c2ca	0.096074656
108	0x3e45eb7b	0.1932811
109	0xbdfde73c	-0.1239762
110	0xbd6998e4	-0.057030573
111	0x3e104ea5	0.140925
112	0x3ac6dc4c	0.0015171855
113	0xbda4144d	-0.080116846
114	0xbdf60fa2	-0.120147005
115	0xbdffc2dc	-0.12488338
116	0x3e447001	0.19183351
117	0x3e4d4e15	0.20049317
118	0x3c0c6271	0.008568392
119	0xbe1922b3	-0.14954643
120	0xbdaa8a92	-0.083272114
121	0xbdc9f6eb	-0.09861549
122	0x3e693a9a	0.22776261
123	0x3dd975e1	0.10618187
124	0x3e22fa2d	0.15915747
125	0xbe5e0a06	-0.21683511
126	0xbd95ff80	-0.073241234
127	0x3df1f569	0.118143864
128	0xbd95644d	-0.072945215
129	0x3a88e905	0.0010445422
130	0x3d734ccf	0.059399422
131	0xbce02239	-0.027360069
132	0xbdc24372	-0.094855204
133	0x3dcad14e	0.09903203
134	0x3e087a7a	0.13327971
135	0xbe24bd8c	-0.16087931
136	0x3e044880	0.12918282
137	0xbe2e5abc	-0.170268
138	0x3dd91b12	0.106008664
139	0xbc878ce9	-0.016546683
140	0x3d1a1587	0.037618186
141	0xbd66c74a	-0.0563424
142	0x3ba16b44	0.004926117
143	0xbb1c10cc	-0.0023813723
144	0x3cd2321a	0.025658656
145	0xbdedc772	-0.11610307
146	0xbe1c1f3f	-0.15246294
147	0x3a06852f	0.000513154
148	0x3dcefad8	0.101064384
149	0x3d0ada78	0.033899754
150	0x3e3fffac	0.18749875
151	0xbd2f56ab	-0.042807262
152	0x3e00a48f	0.12562774
153	0x3dcd5491	0.100258954
154	0x3cec81aa	0.028870422
155	0x3e02b2cf	0.12763523
156	0xbe7badfb	-0.24578087
157	0x3bf58666	0.007492828
158	0x3d30dfed	0.043182302
159	0xbe2705e2	-0.16310838
160	0xbe1a3728	-0.15060103
161	0x3e2e8158	0.17041528
162	0xbdf12d9a	-0.11776276
163	0x3e427209	0.18988813
164	0xbe3800d0	-0.1796906
165	0x3c969e0f	0.018385915
166	0xbe0b07fd	-0.13577266
167	0x3c4d8908	0.012544878
168	0xbc35160f	-0.011052622
169	0xbc72b256	-0.014813026
170	0x3de9ff9a	0.11425705
171	0xbd106652	-0.03525383
172	0x3d1de0df	0.038544532
173	0x3d801b01	0.062551506
174	0xbe23c75e	-0.15994021
175	0xbd8f131c	-0.06986067
176	0xbe5b7c20	-0.21434069
177	0x3e3143db	0.17311041
178	0x3a20e704	0.00061379396
179	0x3e1732c2	0.14765456
180	0xbcaaec26	-0.020864557
181	0x3e36eec9	0.17864527
182	0xbdfc43e7	-0.12317639
183	0x3dda0d16	0.10647027
184	0xbd33d9ad	-0.043908764
185	0xbe6c09dd	-0.23050638
186	0xbd169eb6	-0.036772452
187	0xbe5b85ce	-0.21437761
188	0xbe0a2e61	-0.13494255
189	0x3d2f7291	0.04283387
190	0xbe21aeba	-0.15789309
191	0xbdcdf6ea	-0.10056861
192	0x3d07fff1	0.03320307
193	0x3e103350	0.14082074
194	0x3d8b741d	0.06809256
195	0xbab86ba9	-0.0014070171
196	0x3d891219	0.06692905
197	0x3d9228aa	0.07136662
198	0xbcd1370e	-0.025538947
199	0xbdbb287b	-0.091385804
200	0x3e269f8c	0.162718
201	0xbe55b871	-0.2087114
202	0xbe677ec5	-0.22606952
203	0x3dbe25c1	0.09284545
204	0xbdadc098	-0.08484
205	0xbd9e74cc	-0.07737121
206	0x3dd2046c	0.1025475
207	0xbd86a602	-0.06574632
208	0xbca94934	-0.020664789
209	0x3d06bf2e	0.032897167
210	0xbbaa365c	-0.0051944684
211	0xbd24e6b1	-0.040259067
212	0x3dac54ef	0.08414637
213	0xbdc1732a	-0.09445794
214	0xbd36868d	-0.04456191
215	0xbe2aac42	-0.16667274
216	0x3e2bd336	0.1677979
217	0x3dcf2353	0.101141594
218	0xbd3466fc	-0.044043526
219	0x3e3c7bfa	0.18406668
220	0x3e3372e5	0.17524298
221	0xbd1907cd	-0.037360955
222	0xbd2da0a5	-0.04238953
223	0x3d878773	0.06617632
224	0xbe5e6f56	-0.21722159
225	0xbe42f401	-0.19038393
226	0x3d9fdd1b	0.078058444
227	0x3e823cea	0.254371
228	0x3e254b09	0.16141905
229	0x3e382509	0.17982878
230	0x3d7d6b9a	0.061870195
231	0x3e4e439b	0.20142977
232	0x3cb0dcde	0.021589693
233	0x3d2b43be	0.04181265
234	0xbd82456b	-0.06360897
235	0x3bec9d99	0.0072209355
236	0xbcf711a4	-0.030159779
237	0x3d84c88e	0.06483565
238	0xbe0afcb1	-0.13572957
239	0x3df2a1bf	0.11847257
240	0x3e6c0b36	0.23051152
241	0x3dfb6c64	0.12276533
242	0x3deeeba7	0.11666041
243	0xbd949933	-0.07255783
244	0xbe3466af	-0.17617296
245	0xbe2d6759	-0.16933955
246	0xbe0967c6	-0.13418493
247	0x3e02a430	0.12757945
248	0x3dcf5f5d	0.10125611
249	0xbcd0f99d	-0.02550965
250	0x3de1ecad	0.110314704
251	0x3d478ce9	0.048718367
252	0x3e49a0c3	0.19690232
253	0xbcfa1214	-0.030526198
254	0xbd802a9a	-0.062581256
255	0xbe5071a8	-0.20355856

encoder.rnn.weight_hh_l2 f4 [24, 24]
0	0x3de4ee5e	0.111782774
1	0x3e49001b	0.19628946
2	0xbe5ba128	-0.21448195
3	0xbd8557b6	-0.0651087
4	0xbe4d7327	-0.20063458
5	0x3d89defa	0.067319825
6	0xbdd45806	-0.10368352
7	0xbce24395	-0.027620116
8	0x3dff5068	0.12466508
9	0xbd8e1ee3	-0.06939485
10	0xbe27400c	-0.16333026
11	0xbe1410cf	-0.14459537
12	0x3e1b3944	0.15158564
13	0xbe3e0b34	-0.18558961
14	0xbd8fd9e0	-0.07023978
15	0xbe0b1941	-0.13583852
16	0xbd192b74	-0.037394956
17	0x3dc64698	0.096814334
18	0x3d80be4b	0.062862955
19	0xbe1a4440	-0.15065098
20	0x3deb8ed1	0.115018494
21	0xbda317bd	-0.07963512
22	0x3e3cecc9	0.18449701
23	0x3deb43c5	0.114875354
24	0xbde7ee7c	-0.11324784
25	0xbd23973a	-0.039939143
26	0xbdab0161	-0.083498724
27	0x3e311b16	0.17295489
28	0x3dcc0cad	0.09963355
29	0xbde81bdf	-0.11333441
30	0x3e57b0bd	0.21063514
31	0x3c5c146d	0.013432604
32	0x3df149ef	0.1178168
33	0xbe37409a	-0.17895737
34	0x3e2e593d	0.17026229
35	0xbd2cf3ba	-0.042224623
36	0xbd17504e	-0.03694182
37	0x3b1c252c	0.0023825867
38	0xbdb7472a	-0.0894912
39	0x3dd7e649	0.1054197
40	0xbda41831	-0.08012427
41	0xbe311898	-0.17294538
42	0x3e2f69bb	0.17130177
43	0x3d1bdfb9	0.038055155
44	0xbd29ec32	-0.04148502
45	0xbe2e9113	-0.17047529
46	0x3e29fba5	0.16599901
47	0x3e04a211	0.12952448
48	0x3dfcf449	0.12351281
49	0x3d512140	0.0510571
50	0xbdc582e0	-0.09644103
51	0xbdeca6e2	-0.11555268
52	0x3e27e913	0.16397505
53	0xbe00110f	-0.12506507
54	0x3c6e9f64	0.014564369
55	0xbc22356f	-0.009900435
56	0x3d35f1db	0.044420104
57	0x3dfa9925	0.12236241
58	0x3bb156dd	0.0054119662
59	0x3e0e4384	0.13892943
60	0x3de84146	0.11340575
61	0xbe2f51cf	-0.17121051
62	0xbd594167	-0.05304089
63	0xbe1793e6	-0.14802513
64	0x3e3076c2	0.17232803
65	0x3b58a236	0.003305567
66	0x3df0c916	0.11757104
67	0x3e3d1d45	0.18468197
68	0x3e1e8888	0.1548177
69	0x3d0c580b	0.03426365
70	0x3d1d64bb	0.038426142
71	0xbe18235e	-0.14857242
72	0xbd0c1c34	-0.034206584
73	0x3e038743	0.12844567
74	0x38b37b1a	8.5583146e-05
75	0x3e2c95cb	0.16854016
76	0xbdc1c01c	-0.0946047
77	0xbd8aa94a	-0.067705706
78	0xbd2ba2b4	-0.041903213
79	0xbe3291fe	-0.17438504
80	0x3e221a9c	0.15830463
81	0xbdbb9623	-0.09159496
82	0x3c189cf1	0.0093147615
83	0xbce0d972	-0.027447436
84	0x3e5358c2	0.20639327
85	0x3df2e6d4	0.11860433
86	0xbdef6fc7	-0.11691242
87	0xbd1bdd92	-0.038053103
88	0x3dafca98	0.085835636
89	0xbe17834b	-0.14796178
90	0x3dde31e6	0.10849361
91	0xbca559f6	-0.020184498
92	0xbe46ae8c	-0.19402522
93	0x3e08e6a0	0.13369226
94	0x3d91a711	0.071119435
95	0xbc1a882b	-0.009431879
96	0x3e109d99	0.14122619
97	0x3de0ad54	0.1097056
98	0x3df24d89	0.11831195
99	0xbd468a3d	-0.048471678
100	0xbe13b15e	-0.14423129
101	0x3dfd8b88	0.12380129
102	0x3de3efbe	0.111297116
103	0x3d11c999	0.03559265
104	0x3b76c482	0.003765375
105	0xbe5eb671	-0.21749283
106	0x3de8d6bd	0.11369083
107	0x3ded97fc	0.11601254
108	0x3e5e9299	0.2173561
109	0xbd7a7cd7	-0.061154213
110	0x3de0a24e	0.10968457
111	0xbe1658bc	-0.14682287
112	0xbe2a80e2	-0.16650727
113	0x3dde32e6	0.10849552
114	0xbdfcf21b	-0.123508655
115	0xbe6371ea	-0.22211424
116	0xbd56b48c	-0.052418277
117	0xbcfcbe6c	-0.030852519
118	0xbd9bcc16	-0.07607286
119	0xbe10490d	-0.14090367
120	0x3e48dfed	0.19616671
121	0xbd5e3544	-0.054250017
122	0xbe246431	-0.16053845
123	0x3df13e39	0.11779446
124	0xbe0fb0a0	-0.14032221
125	0x3d333a96	0.043757044
126	0xbd5351bd	-0.051591624
127	0x3d826ef1	0.06368817
128	0xbdcb79e3	-0.099353574
129	0x3cc0d1cb	0.023537537
130	0xbe592a54	-0.21207553
131	0x3e03512c	0.12823933
132	0xbcd9e872	-0.026600096
133	0x3d9cfbf9	0.076652475
134	0x3e0d91b2	0.1382511
135	0xbd8e52ba	-0.069493726
136	0xbde1793f	-0.11009454
137	0x3d5587be	0.052131407
138	0xbdbbd4de	-0.091714606
139	0x3dd3ce1c	0.103420466
140	0x3e15f955	0.14645894
141	0x3dead95f	0.114672415
142	0x3e30ebd8	0.17277467
143	0x3e533de9	0.20629086
144	0x3e1be5df	0.15224408
145	0xbe1072f1	-0.14106347
146	0xbc519c88	-0.012793668
147	0x3da2ae76	0.07943432
148	0xbdb8dcf1	-0.09026516
149	0xbe0fb436	-0.14033589
150	0x3dae6279	0.08514876
151	0xbdbce465	-0.0922325
152	0x3d64f1fb	0.055894833
153	0xbe35664e	-0.17714807
154	0xbe143e49	-0.14476885
155	0x3de45134	0.11148301
156	0x3d47031a	0.048586942
157	0x3b9aae98	0.00472052
158	0x3dbb7ef0	0.09155071
159	0x3c891d4b	0.0167376
160	0x3d5b3129	0.05351368
161	0xbe3ca59e	-0.18422553
162	0x3e43e68b	0.19130914
163	0x3e13033b	0.14356701
164	0xbe0706c8	-0.1318618
165	0x3d6a02dd	0.057131637
166	0xbb5b72f2	-0.003348526
167	0x3e530d6c	0.20610589
168	0x3dd52e3d	0.1040921
169	0xbdd7d4fe	-0.10538672
170	0xbd7fe539	-0.062474463
171	0x3e25812f	0.16162561
172	0xbc90db06	-0.017682564
173	0x3df157ec	0.11784348
174	0x3d0c6547	0.034276273
175	0x3dbaa4b5	0.091134466
176	0xbdca9def	-0.09893405
177	0x3e102b30	0.14078975
178	0xbe0022b4	-0.12513238
179	0xbcca58c1	-0.024700524
180	0x3d35593a	0.044274546
181	0x3d9698d1	0.07353366
182	0x3c772811	0.015085236
183	0x3d8f6cbd	0.07003162
184	0x3e3e0ae7	0.18558846
185	0xbd1b38a3	-0.03789581
186	0xbd623ef1	-0.055235807
187	0xbcb009fb	-0.021489134
188	0xbd5d781e	-0.05406963
189	0x3e2cf791	0.16891314
190	0x3df63ec4	0.1202369
191	0x3db4b2a2	0.08823134
192	0xbd845af7	-0.06462663
193	0x3d28151c	0.041035756
194	0x3df24dc2	0.118312374
195	0x3e1a90db	0.1509432
196	0xbd9da506	-0.07697491
197	0xbe01c06d	-0.12671061
198	0x3dabe7b8	0.08393806
199	0x3e30ce26	0.1726614
200	0xbdb2fadf	-0.08739256
201	0x3e2e4701	0.17019273
202	0xbcaef121	-0.021355214
203	0xbdcdf423	-0.10056331
204	0xbe148d5b	-0.14507048
205	0x3c07a050	0.008277968
206	0xbce70e2f	-0.028205005
207	0x3e446a22	0.19181111
208	0x3b3ea864	0.0029092068
209	0x3cfb3c6e	0.030668464
210	0xbd63fadc	-0.05565916
211	0xbdc2793f	-0.09495782
212	0x3e25b4cc	0.1618225
213	0xbe25788f	-0.1615927
214	0xbc74ba05	-0.014936929
215	0x3da0fe3e	0.07860993
216	0xbcf79b2e	-0.030225363
217	0x3e2d831d	0.16944547
218	0xbdec0b12	-0.11525549
219	0x3dc949d6	0.09828536
220	0xbd86664b	-0.065624796
221	0xbe33d578	-0.175619
222	0x3e0671c7	0.1312934
223	0xbe51ad68	-0.20476305
224	0xbc06ffb8	-0.008239679
225	0xbd38dfda	-0.045135356
226	0xbe5f1c90	-0.2178824
227	0xbdfd6925	-0.1237357
228	0x3d95c091	0.0731212
229	0x3e0db6b5	0.13839228
230	0x3e2c59a8	0.16831076
231	0xbd9cf825	-0.07664517
232	0x3da408c1	0.08009482
233	0x3ddafbfb	0.10692593
234	0x3d4e017b	0.05029438
235	0x3e317599	0.17330016
236	0xbdc932b7	-0.09824126
237	0x3d7a23c1	0.061069254
238	0x3dbf4870	0.09339988
239	0x3e07b375	0.13252051
240	0x3e31c3e9	0.1735989
241	0x3bc1acfd	0.0059105144
242	0x3db4f0bf	0.08834981
243	0x3cb9aef3	0.02266643
244	0xbdc5b66a	-0.09653933
245	0x3d7ac2d0	0.061220944
246	0xbdfe5dd2	-0.124202386
247	0xbe093b79	-0.13401593
248	0x3d1a79c1	0.03771377
249	0xbd40bbbe	-0.047054045
250	0xbd99eede	-0.075162634
251	0xbc8f9080	-0.017524958
252	0x3e46d4be	0.19417092
253	0xbe36a2d7	-0.17835556
254	0xbca2ca65	-0.0198719
255	0xbd8ccae5	-0.068746366

encoder.rnn.bias_ih_l2 f4 [24]
0	0x3debae4d	0.115078546
1	0x3d4c1dc6	0.04983308
2	0x3e2ff9b6	0.17185101
3	0xbdc40977	-0.09572118
4	0xbe577bb8	-0.21043289
5	0xbe585626	-0.21126613
6	0x3e3afac0	0.18259716
7	0xbc8c1851	-0.017101439
8	0xbdcdd998	-0.10051268
9	0xbcee207d	-0.029068226
10	0xbd8ab66a	-0.06773074
11	0x3e391b09	0.1807672
12	0x3e48ea4d	0.19620629
13	0x3e37a1b1	0.17932774
14	0x3dba9154	0.091097504
15	0x3dc821e0	0.09772086
16	0xbe194c9c	-0.1497063
17	0xbe210623	-0.15724997
18	0xbd3e3ba6	-0.046443604
19	0xbc0d5c3a	-0.008627946
20	0x3c23b4a1	0.009991796
21	0x3e4cfc40	0.200181
22	0xbdc3f783	-0.095686935
23	0xbd87e0f1	-0.06634701

encoder.rnn.bias_hh_l2 f4 [24]
0	0x3d3ad287	0.04561093
1	0x3e54b127	0.20770703
2	0xbdf249a8	-0.11830455
3	0x3d9b993b	0.07597586
4	0x3e321a88	0.17392933
5	0x3d8a4184	0.06750777
6	0xbe36cb18	-0.17850912
7	0xbd3013ec	-0.04298775
8	0xbe12637d	-0.14295764
9	0x3d102cfd	0.035199154
10	0x3de2c301	0.1107235
11	0xbdcc3650	-0.09971297
12	0xbd234cbc	-0.0398681
13	0xbe11f42d	-0.14253302
14	0x3df320d8	0.11871499
15	0x3df3db30	0.11907041
16	0xbddfc3b4	-0.10925999
17	0xbe048223	-0.12940268
18	0xbe37f4fe	-0.17964551
19	0x3d45b077	0.048263993
20	0x3dd0548d	0.10172377
21	0xbb396246	-0.0028287335
22	0x3cc7d0a1	0.024391474
23	0xbe204822	-0.15652516

encoder.fc.weight f4 [24, 24]
0	0x3c249446	0.010045117
1	0x3d719191	0.058976714
2	0x3d5c1dd3	0.05373938
3	0xbdb4fd79	-0.088374086
4	0x3e2e3ac3	0.17014603
5	0xbcd6cfb5	-0.02622209
6	0x3e07e24d	0.1326992
7	0xbd781fdf	-0.06057727
8	0x3cab6c88	0.020925775
9	0x3e3cf9d9	0.18454684
10	0x3e5e84db	0.21730368
11	0x3d577a8e	0.05260711
12	0x3cf7ca34	0.030247785
13	0x3e7635ca	0.24043956
14	0x3da28183	0.07934859
15	0xbccaa7b9	-0.02473818
16	0x3e111d0a	0.14171234
17	0x3bb1da77	0.0054276544
18	0xbd0f3224	-0.034959927
19	0x3daef472	0.08542718
20	0xbd94ee90	-0.07272065
21	0x3e57a798	0.21060026
22	0x3e46d3c3	0.19416718
23	0xbe67cfae	-0.22637817
24	0x3dd40bc7	0.10353809
25	0xbb3aa6d1	-0.0028480778
26	0x3e5f5a8e	0.21811888
27	0xbccc2fe9	-0.02492519
28	0xbe311137	-0.17291723
29	0x3e1a1a16	0.15049013
30	0x3e3db7a0	0.18527079
31	0x3df3a3ac	0.11896452
32	0x3db23be4	0.087028295
33	0x3dac3ed7	0.08410423
34	0x3e3cdea8	0.18444312
35	0x3c3d8afd	0.011568782
36	0xbe776e67	-0.24163209
37	0xbdef73c6	-0.11692004
38	0x3e0cd30f	0.13752387
39	0xbdfeb490	-0.12436783
40	0xbdec5a27	-0.11540633
41	0x3e0d4460	0.13795614
42	0x3e096a27	0.134194
43	0xbe50ab7f	-0.2037792
44	0xbddbe2d0	-0.107366204
45	0x3dcbeacf	0.099568956
46	0x3c6fb5fc	0.014630791
47	0x3da14852	0.07875122
48	0x3ddf0cfd	0.10891149
49	0xbdf68823	-0.12037685
50	0xbdbbb846	-0.09166007
51	0xbbc17049	-0.005903278
52	0xbcbd3895	-0.02309827
53	0xbe48a680	-0.19594765
54	0x3e113c17	0.14183079
55	0xbe10e40f	-0.14149497
56	0xbe0d08c0	-0.13772869
57	0xbd8b5b55	-0.068045296
58	0xbe53b726	-0.20675334
59	0xbd308c37	-0.04310247
60	0x3dcdb1a4	0.10043648
61	0xbdc1a5b6	-0.09455435
62	0xbdcbb6e7	-0.09946995
63	0xbcd63508	-0.026148334
64	0x3d49f542	0.04930616
65	0xbe1353ef	-0.14387487
66	0x3df60a0b	0.12013634
67	0xbd81feb1	-0.06347407
68	0xbdd8edcf	-0.105922334
69	0xbdbc37b7	-0.09190314
70	0x3e04a4cc	0.1295349
71	0x3d3c2ad7	0.045939293
72	0xbb3909a3	-0.0028234504
73	0x3e0af21c	0.1356892
74	0x3e500dc1	0.20317747
75	0x3d1ea636	0.03873273
76	0x3d8077e0	0.06272864
77	0xbd5e6323	-0.054293763
78	0x3e55d96d	0.20883723
79	0x3db051eb	0.086093746
80	0x3e10e09c	0.14148182
81	0xbe21a702	-0.15786365
82	0xbe29c722	-0.1657987
83	0xbe7dacde	-0.24772975
84	0x3e5aa9a8	0.21353781
85	0xbe81ab1e	-0.25325865
86	0xbd9e6004	-0.07733157
87	0x3da025f0	0.07819736
88	0x3d7bd3e4	0.06148137
89	0xbd24854f	-0.040166195
90	0x3d5c4b92	0.053783007
91	0xbdad435c	-0.084601134
92	0x3dd1c025	0.10241727
93	0x3e3caa8d	0.18424435
94	0xbdff1eac	-0.12457022
95	0xbd44b6fe	-0.048026077
96	0xbc578716	-0.013154766
97	0x3db5abd1	0.08870662
98	0x3cbf267b	0.023333779
99	0xbdda794e	-0.10667668
100	0xbdd2ddf7	-0.10296243
101	0xbe38fe11	-0.18065669
102	0xbe22c232	-0.15894392
103	0x3def632b	0.11688837
104	0xbdd7d5ec	-0.10538849
105	0xbe80a654	-0.25126898
106	0xbe2e6c0d	-0.17033406
107	0xbe503da8	-0.2033602
108	0xbe7a9432	-0.24470595
109	0x3d5c39f4	0.053766206
110	0xbd9d9f3a	-0.07696386
111	0xbd3c9012	-0.046035834
112	0x3dff25a1	0.12458349
113	0x3d8f413a	0.06994863
114	0xbbcf22b0	-0.0063212737
115	0xbe2d8980	-0.16946983
116	0x3dd3394c	0.10313663
117	0x3dee3598	0.11631316
118	0x3dc36935	0.09541551
119	0x3e4476c7	0.19185935
120	0x3e309f4a	0.17248264
121	0x3cd1afcc	0.025596522
122	0x3d80d122	0.06289889
123	0x3da8586a	0.08219989
124	0xbd49d2b4	-0.049273208
125	0xbcaaea33	-0.020863628
126	0x3e275d9f	0.16344307
127	0xbd96b8d9	-0.07359476
128	0x3e30520c	0.17218798
129	0x3e0bdbae	0.1365802
130	0x3dd69612	0.104778424
131	0x3e3079a8	0.17233908
132	0x3e1a6c99	0.15080489
133	0xbe24dca3	-0.16099791
134	0xbbed36db	-0.0072392053
135	0xbd5f4c3b	-0.05451606
136	0xbb04a31d	-0.0020238825
137	0x3e0b8529	0.13625015
138	0xbc97e947	-0.018543852
139	0x3e0426cc	0.12905425
140	0xbde38e7d	-0.11111162
141	0xbcecded1	-0.02891484
142	0x3e44418a	0.19165626
143	0x3e689baa	0.22715631
144	0x3d8f10bb	0.06985613
145	0xbd855a30	-0.065113425
146	0xbe05e2d1	-0.13074805
147	0x3df4c057	0.119507484
148	0x3de84200	0.113407135
149	0xbdcf11ac	-0.101107925
150	0x3d392f3e	0.04521107
151	0xbdab4f4b	-0.08364733
152	0xbdbbbf11	-0.091673024
153	0x3dd516e0	0.10404754
154	0xbd9f611e	-0.077821955
155	0xbdff0ea9	-0.12453968
156	0x3e3286c8	0.17434227
157	0xbe06a239	-0.1314782
158	0x3e2f7040	0.17132664
159	0x3e3d1efe	0.18468854
160	0x3d90d387	0.07071596
161	0x3dd9e597	0.10639494
162	0x3d526573	0.05136628
163	0xbe0113b0	-0.12605166
164	0x3dba25aa	0.09089215
165	0x3dc4910a	0.095979765
166	0xbd6649d3	-0.056222748
167	0x3e0c28af	0.13687395
168	0x3d0255fc	0.031820282
169	0x3de7825c	0.11304161
170	0xbd257f8a	-0.040404834
171	0x3d736565	0.05942287
172	0xbddb6c51	-0.10714019
173	0x3cec5a82	0.028851751
174	0xbe183c75	-0.14866813
175	0xbdc04873	-0.093888186
176	0x3e142f63	0.14471202
177	0x3d08d89d	0.033409704
178	0x3e1694cb	0.14705198
179	0xbdb221c7	-0.08697849
180	0x3e8fe431	0.28103784
181	0x3e84bcf9	0.25925425
182	0x3dc67f4c	0.09692249
183	0x3d8aca5a	0.06776877
184	0x3e302797	0.17202602
185	0xbe162ecd	-0.1466629
186	0xbe2e1e76	-0.17003807
187	0xbb3b26c5	-0.0028557044
188	0xba5430aa	-0.000809441
189	0xbe4557a0	-0.19271708
190	0xbba76873	-0.005108887
191	0xbd1c6268	-0.038179785
192	0xbe5242af	-0.2053325
193	0xbe264fbc	-0.16241354
194	0x3d770b5e	0.060313575
195	0x3d63c59f	0.055608388
196	0x3e2d9021	0.16949512
197	0xbd36e5a9	-0.044652615
198	0x3d6da770	0.05802101
199	0x3e716e18	0.23577154
200	0x3d52ecac	0.05149524
201	0xbe884e0d	-0.26622048
202	0xbe557914	-0.20846969
203	0xbdbc877d	-0.0920553
204	0xbd2818b6	-0.04103919
205	0xbd9810f2	-0.07425107
206	0xbe5981c6	-0.21240911
207	0xbca2c8de	-0.019871172
208	0xbaaa704f	-0.0013003441
209	0xbe17589a	-0.14779893
210	0x3cca2710	0.02467683
211	0xbd426df8	-0.047468156
212	0xbe6b3455	-0.22969182
213	0x3d1271bd	0.035753
214	0x3d0958a0	0.033531785
215	0x3e591a40	0.2120142
216	0x3e1a9b56	0.15098318
217	0xbe27a015	-0.1636966
218	0x3caee7b2	0.021350715
219	0x3d31e9ca	0.04343585
220	0x3d2fe3d2	0.042941876
221	0xbe64c16f	-0.22339414
222	0xbe15279e	-0.14565894
223	0x3e2e545b	0.17024367
224	0xbcbba320	-0.022904932
225	0x3d48f447	0.049061086
226	0x3c78239a	0.015145207
227	0xbe17d256	-0.1482633
228	0xbdfc615e	-0.12323259
229	0xbe1c2745	-0.15249355
230	0xbc03231e	-0.008003978
231	0x3dd6a16c	0.104800075
232	0xbd625cd6	-0.055264316
233	0xbd410e08	-0.047132522
234	0xbe061de5	-0.13097341
235	0x3e0c7534	0.13716584
236	0xbd19a0ed	-0.037506986
237	0x3da76fa7	0.08175593
238	0xbd19e068	-0.037567526
239	0xbe0d4abb	-0.13798039
240	0x3dae1e7c	0.08501908
241	0xbdaecc77	-0.08535092
242	0x3db81731	0.089887984
243	0x3d438aa4	0.04773964
244	0x3d8ccf68	0.06875497
245	0x3da965c6	0.08271365
246	0xbb9bb577	-0.004751857
247	0xbe0740b2	-0.13208273
248	0xbe33dbf5	-0.17564376
249	0xbe1993d3	-0.14997797
250	0x3e5655ad	0.2093112
251	0xbd25968a	-0.04042677
252	0xbd4044db	-0.046940666
253	0x3e167585	0.14693268
254	0xbd843709	-0.064558096
255	0x3dc2662a	0.094921425

encoder.fc.bias f4 [24]
0	0x3e17fc0b	0.1484224
1	0x3d8778a2	0.06614806
2	0xbd17c19e	-0.037049882
3	0x3a809d66	0.0009812533
4	0x3c1fddfd	0.009757516
5	0x3e4c6842	0.19961646
6	0xbe1b8302	-0.15186694
7	0xbcd782d1	-0.026307495
8	0x3cad6cb0	0.02116999
9	0xbe0aa973	-0.13541202
10	0x3d1f6592	0.038915224
11	0xbdd8657f	-0.10566234
12	0xbe458f4f	-0.19292949
13	0xbd23f97f	-0.04003286
14	0xbca7f6ca	-0.02050342
15	0x3dd461ec	0.103702396
16	0xbe03fc9c	-0.12889332
17	0xbe37062c	-0.17873448
18	0xbdcd6559	-0.10029096
19	0x3e39532a	0.18098131
20	0xbe0640c3	-0.13110642
21	0xbd1542d8	-0.0364407
22	0x3e1b51c6	0.15167913
23	0xbe26a849	-0.16275133
